DEVICE BEING USED:  cuda 
ORIGINAL UN-PRUNED MODEL: 
 VAE(
  (fc1): Linear(in_features=784, out_features=600, bias=True)
  (fc21): Linear(in_features=600, out_features=100, bias=True)
  (fc22): Linear(in_features=600, out_features=100, bias=True)
  (fc3): Linear(in_features=100, out_features=600, bias=True)
  (fc4): Linear(in_features=600, out_features=784, bias=True)
) 
====> Test set loss: 135.1325
====> Test set loss: 118.9197
====> Test set loss: 112.7824
====> Test set loss: 109.8977
====> Test set loss: 108.5349
====> Test set loss: 107.4287
====> Test set loss: 106.5929
====> Test set loss: 106.0382
====> Test set loss: 105.5211
====> Test set loss: 105.1355
====> Test set loss: 104.8926
====> Test set loss: 104.6621
====> Test set loss: 104.3693
====> Test set loss: 104.0606
====> Test set loss: 103.9012
THE TOTAL EXECUTION TIME OF UNPRUNED MODEL:  151.94118523597717 
PRUNER WRAPPED MODEL WITH FPGMPruner: 
 VAE(
  (fc1): PrunerModuleWrapper(
    (module): Linear(in_features=784, out_features=600, bias=True)
  )
  (fc21): PrunerModuleWrapper(
    (module): Linear(in_features=600, out_features=100, bias=True)
  )
  (fc22): PrunerModuleWrapper(
    (module): Linear(in_features=600, out_features=100, bias=True)
  )
  (fc3): PrunerModuleWrapper(
    (module): Linear(in_features=100, out_features=600, bias=True)
  )
  (fc4): Linear(in_features=600, out_features=784, bias=True)
) 
fc1  sparsity :  0.3 
fc21  sparsity :  0.3 
fc22  sparsity :  0.3 
fc3  sparsity :  0.3 
C:\Users\sashah8\Anaconda3\envs\nni_env\lib\site-packages\torch\jit\_trace.py:992: TracerWarning: Trace had nondeterministic nodes. Did you forget call .eval() on your model? Nodes:
	%eps : Float(8, 100, strides=[100, 1], requires_grad=0, device=cuda:0) = aten::randn_like(%std, %40, %41, %42, %43, %44) # C:\Users\sashah8\CS - 791\NNI\vae\model_VAE.py:61:0
…
[2022-09-27 17:31:12] replace linear with new in_features: 180, out_features: 33
[2022-09-27 17:31:12] replace module (name: fc22, op_type: Linear)
[2022-09-27 17:31:12] replace linear with new in_features: 180, out_features: 33
[2022-09-27 17:31:12] replace module (name: fc3, op_type: Linear)
[2022-09-27 17:31:12] replace linear with new in_features: 33, out_features: 180
[2022-09-27 17:31:12] replace module (name: fc4, op_type: Linear)
[2022-09-27 17:31:12] replace linear with new in_features: 180, out_features: 784
[2022-09-27 17:31:12] speedup done
PRUNED MODEL WITH FPGMPruner: 
 VAE(
  (fc1): Linear(in_features=784, out_features=180, bias=True)
  (fc21): Linear(in_features=180, out_features=33, bias=True)
  (fc22): Linear(in_features=180, out_features=33, bias=True)
  (fc3): Linear(in_features=33, out_features=180, bias=True)
  (fc4): Linear(in_features=180, out_features=784, bias=True)
) 
====> Test set loss: 109.2803
====> Test set loss: 107.2410
====> Test set loss: 106.5829
====> Test set loss: 106.0033
====> Test set loss: 105.9069
====> Test set loss: 105.4766
====> Test set loss: 105.4946
====> Test set loss: 105.2154
====> Test set loss: 104.9834
====> Test set loss: 104.9887
====> Test set loss: 104.9335
====> Test set loss: 104.6891
…
