DEVICE BEING USED:  cuda 
ORIGINAL UN-PRUNED MODEL: 
 VAE(
  (fc1): Linear(in_features=784, out_features=600, bias=True)
  (fc21): Linear(in_features=600, out_features=100, bias=True)
  (fc22): Linear(in_features=600, out_features=100, bias=True)
  (fc3): Linear(in_features=100, out_features=600, bias=True)
  (fc4): Linear(in_features=600, out_features=784, bias=True)
) 
====> Test set loss: 135.1325
====> Test set loss: 118.9197
====> Test set loss: 112.7824
====> Test set loss: 109.8977
====> Test set loss: 108.5349
====> Test set loss: 107.4287
====> Test set loss: 106.5929
====> Test set loss: 106.0382
====> Test set loss: 105.5211
====> Test set loss: 105.1355
====> Test set loss: 104.8926
====> Test set loss: 104.6621
====> Test set loss: 104.3693
====> Test set loss: 104.0606
====> Test set loss: 103.9012
THE TOTAL EXECUTION TIME OF UNPRUNED MODEL:  153.8312771320343 
PRUNER WRAPPED MODEL WITH FPGMPruner: 
 VAE(
  (fc1): Linear(in_features=784, out_features=600, bias=True)
  (fc21): PrunerModuleWrapper(
    (module): Linear(in_features=600, out_features=100, bias=True)
  )
  (fc22): PrunerModuleWrapper(
    (module): Linear(in_features=600, out_features=100, bias=True)
  )
  (fc3): PrunerModuleWrapper(
    (module): Linear(in_features=100, out_features=600, bias=True)
  )
  (fc4): Linear(in_features=600, out_features=784, bias=True)
) 
fc21  sparsity :  0.6 
fc22  sparsity :  0.6 
fc3  sparsity :  0.6 
C:\Users\sashah8\Anaconda3\envs\nni_env\lib\site-packages\torch\jit\_trace.py:992: TracerWarning: Trace had nondeterministic nodes. Did you forget call .eval() on your model? Nodes:
	%eps : Float(8, 100, strides=[100, 1], requires_grad=0, device=cuda:0) = aten::randn_like(%std, %40, %41, %42, %43, %44) # C:\Users\sashah8\CS - 791\NNI\vae\model_VAE.py:61:0
…
[2022-09-27 17:46:25] replace linear with new in_features: 600, out_features: 76
[2022-09-27 17:46:25] replace module (name: fc22, op_type: Linear)
[2022-09-27 17:46:25] replace linear with new in_features: 600, out_features: 76
[2022-09-27 17:46:25] replace module (name: fc3, op_type: Linear)
[2022-09-27 17:46:25] replace linear with new in_features: 76, out_features: 360
[2022-09-27 17:46:25] replace module (name: fc4, op_type: Linear)
[2022-09-27 17:46:25] replace linear with new in_features: 360, out_features: 784
[2022-09-27 17:46:25] speedup done
PRUNED MODEL WITH FPGMPruner: 
 VAE(
  (fc1): Linear(in_features=784, out_features=600, bias=True)
  (fc21): Linear(in_features=600, out_features=76, bias=True)
  (fc22): Linear(in_features=600, out_features=76, bias=True)
  (fc3): Linear(in_features=76, out_features=360, bias=True)
  (fc4): Linear(in_features=360, out_features=784, bias=True)
) 
====> Test set loss: 104.2843
====> Test set loss: 104.1269
====> Test set loss: 103.9235
====> Test set loss: 103.7214
====> Test set loss: 103.7778
====> Test set loss: 103.5088
====> Test set loss: 103.4989
====> Test set loss: 103.2259
====> Test set loss: 102.9897
====> Test set loss: 103.0936
====> Test set loss: 103.0761
====> Test set loss: 102.7355
…
