DEVICE BEING USED:  cpu 
ORIGINAL UN-PRUNED MODEL: 
 VAE(
  (fc1): Linear(in_features=784, out_features=600, bias=True)
  (fc21): Linear(in_features=600, out_features=100, bias=True)
  (fc22): Linear(in_features=600, out_features=100, bias=True)
  (fc3): Linear(in_features=100, out_features=600, bias=True)
  (fc4): Linear(in_features=600, out_features=784, bias=True)
) 
====> Test set loss: 134.7863
====> Test set loss: 119.5380
====> Test set loss: 113.1916
====> Test set loss: 109.9592
====> Test set loss: 108.4240
====> Test set loss: 107.0317
====> Test set loss: 106.2752
====> Test set loss: 105.6337
====> Test set loss: 105.2633
====> Test set loss: 104.9679
====> Test set loss: 104.7005
====> Test set loss: 104.6526
====> Test set loss: 104.5300
====> Test set loss: 104.0597
====> Test set loss: 103.9728
THE TOTAL EXECUTION TIME OF UNPRUNED MODEL:  162.7859251499176 
PRUNER WRAPPED MODEL WITH L1NormPruner: 
 VAE(
  (fc1): PrunerModuleWrapper(
    (module): Linear(in_features=784, out_features=600, bias=True)
  )
  (fc21): PrunerModuleWrapper(
    (module): Linear(in_features=600, out_features=100, bias=True)
  )
  (fc22): PrunerModuleWrapper(
    (module): Linear(in_features=600, out_features=100, bias=True)
  )
  (fc3): PrunerModuleWrapper(
    (module): Linear(in_features=100, out_features=600, bias=True)
  )
  (fc4): Linear(in_features=600, out_features=784, bias=True)
) 
fc1  sparsity :  0.3 
fc21  sparsity :  0.3 
fc22  sparsity :  0.3 
fc3  sparsity :  0.3 
C:\Users\sashah8\Anaconda3\envs\nni_env\lib\site-packages\torch\jit\_trace.py:992: TracerWarning: Trace had nondeterministic nodes. Did you forget call .eval() on your model? Nodes:
	%eps : Float(8, 100, strides=[100, 1], requires_grad=0, device=cpu) = aten::randn_like(%std, %40, %41, %42, %43, %44) # C:\Users\sashah8\CS - 791\NNI\vae\model_VAE.py:61:0
…
[2022-09-27 16:47:04] replace linear with new in_features: 180, out_features: 33
[2022-09-27 16:47:04] replace module (name: fc22, op_type: Linear)
[2022-09-27 16:47:04] replace linear with new in_features: 180, out_features: 33
[2022-09-27 16:47:04] replace module (name: fc3, op_type: Linear)
[2022-09-27 16:47:04] replace linear with new in_features: 33, out_features: 180
[2022-09-27 16:47:04] replace module (name: fc4, op_type: Linear)
[2022-09-27 16:47:04] replace linear with new in_features: 180, out_features: 784
[2022-09-27 16:47:04] speedup done
PRUNED MODEL WITH L1NormPruner: 
 VAE(
  (fc1): Linear(in_features=784, out_features=180, bias=True)
  (fc21): Linear(in_features=180, out_features=33, bias=True)
  (fc22): Linear(in_features=180, out_features=33, bias=True)
  (fc3): Linear(in_features=33, out_features=180, bias=True)
  (fc4): Linear(in_features=180, out_features=784, bias=True)
) 
====> Test set loss: 109.8527
====> Test set loss: 107.8899
====> Test set loss: 106.7941
====> Test set loss: 106.2950
====> Test set loss: 106.1340
====> Test set loss: 105.7676
====> Test set loss: 105.5148
====> Test set loss: 105.2326
====> Test set loss: 105.2586
====> Test set loss: 105.1206
====> Test set loss: 104.8361
====> Test set loss: 104.7821
…
