DEVICE BEING USED:  cpu 
ORIGINAL UN-PRUNED MODEL: 
 VAE(
  (fc1): Linear(in_features=784, out_features=600, bias=True)
  (fc21): Linear(in_features=600, out_features=100, bias=True)
  (fc22): Linear(in_features=600, out_features=100, bias=True)
  (fc3): Linear(in_features=100, out_features=600, bias=True)
  (fc4): Linear(in_features=600, out_features=784, bias=True)
) 
====> Test set loss: 134.7863
====> Test set loss: 119.5380
====> Test set loss: 113.1916
====> Test set loss: 109.9592
====> Test set loss: 108.4240
====> Test set loss: 107.0317
====> Test set loss: 106.2752
====> Test set loss: 105.6337
====> Test set loss: 105.2633
====> Test set loss: 104.9679
====> Test set loss: 104.7005
====> Test set loss: 104.6526
====> Test set loss: 104.5300
====> Test set loss: 104.0597
====> Test set loss: 103.9728
THE TOTAL EXECUTION TIME OF UNPRUNED MODEL:  166.27016425132751 
PRUNER WRAPPED MODEL WITH L1NormPruner: 
 VAE(
  (fc1): Linear(in_features=784, out_features=600, bias=True)
  (fc21): PrunerModuleWrapper(
    (module): Linear(in_features=600, out_features=100, bias=True)
  )
  (fc22): PrunerModuleWrapper(
    (module): Linear(in_features=600, out_features=100, bias=True)
  )
  (fc3): PrunerModuleWrapper(
    (module): Linear(in_features=100, out_features=600, bias=True)
  )
  (fc4): Linear(in_features=600, out_features=784, bias=True)
) 
fc21  sparsity :  0.6 
fc22  sparsity :  0.6 
fc3  sparsity :  0.6 
C:\Users\sashah8\Anaconda3\envs\nni_env\lib\site-packages\torch\jit\_trace.py:992: TracerWarning: Trace had nondeterministic nodes. Did you forget call .eval() on your model? Nodes:
	%eps : Float(8, 100, strides=[100, 1], requires_grad=0, device=cpu) = aten::randn_like(%std, %40, %41, %42, %43, %44) # C:\Users\sashah8\CS - 791\NNI\vae\model_VAE.py:61:0
…
[2022-09-27 16:53:13] replace linear with new in_features: 600, out_features: 72
[2022-09-27 16:53:13] replace module (name: fc22, op_type: Linear)
[2022-09-27 16:53:13] replace linear with new in_features: 600, out_features: 72
[2022-09-27 16:53:13] replace module (name: fc3, op_type: Linear)
[2022-09-27 16:53:13] replace linear with new in_features: 72, out_features: 360
[2022-09-27 16:53:13] replace module (name: fc4, op_type: Linear)
[2022-09-27 16:53:13] replace linear with new in_features: 360, out_features: 784
[2022-09-27 16:53:13] speedup done
PRUNED MODEL WITH L1NormPruner: 
 VAE(
  (fc1): Linear(in_features=784, out_features=600, bias=True)
  (fc21): Linear(in_features=600, out_features=72, bias=True)
  (fc22): Linear(in_features=600, out_features=72, bias=True)
  (fc3): Linear(in_features=72, out_features=360, bias=True)
  (fc4): Linear(in_features=360, out_features=784, bias=True)
) 
====> Test set loss: 104.6720
====> Test set loss: 104.1015
====> Test set loss: 103.7933
====> Test set loss: 103.5478
====> Test set loss: 103.5959
====> Test set loss: 103.8055
====> Test set loss: 103.2793
====> Test set loss: 103.1547
====> Test set loss: 103.0747
====> Test set loss: 103.1367
====> Test set loss: 103.0064
====> Test set loss: 102.9719
…
